src/results/music_model.pth (torch, 84336 bytes, 6 tensors)

fc1.weight f4 [128, 50]
0.016214434 -0.117881395 0.041899577 -0.12890977 -0.054593842 0.0011375884 -0.013822722 0.049156282
-0.007542825 -0.020108603 0.1032533 -0.1056447 0.030560408 0.092473246 -0.09985738 -0.036946565
-0.008147453 -0.124953926 -0.08293312 -0.15586214 -0.091996774 -0.056490373 -0.13813826 -0.14903241
0.049509637 0.010411002 -0.0011746348 0.100137115 -0.08549701 0.09839406 0.11128074 0.120364286
0.0060639535 -0.014568424 0.008861222 -0.053636108 0.036198728 -0.0024771418 -0.07178976 0.0052103708
-0.057164263 0.006446882 0.06411033 0.061212845 0.024550702 0.018992787 -0.13709694 -0.112718016
-0.020812416 0.006529629 0.05800266 -0.10019766 -0.021388948 0.034960248 -0.008879454 -0.04976285
0.0011217565 -0.03768755 0.042588927 -0.005170031 -0.029969592 0.012651603 0.11059411 -0.008625339
-0.014160161 0.032136057 0.0067562303 0.015483896 0.029680207 0.028145643 -0.11166097 0.064126335
-0.08900075 -0.06571852 0.08757149 0.05541834 0.015151291 0.025528567 -0.12390408 0.036342498
-0.13251868 0.024333203 0.038653985 -0.02470952 0.027047703 0.07567992 0.18689741 0.12279289
-0.013394916 -0.16990909 -0.23883393 -0.123599686 -0.11051842 0.18902229 0.13121547 -0.06835206
-0.06518736 0.15510617 -0.10924635 0.09500876 0.057857517 0.019781107 0.045775533 -0.013418338
0.006705721 0.04817476 0.0007314652 -0.06134643 0.055426985 -0.06667677 -0.10565531 0.00055298745
0.023303298 0.035090648 0.04116021 -0.020186387 -0.0047965967 0.019352324 0.036461025 0.07351935
-0.03270906 -0.02849781 -0.0027819239 0.033002153 -0.043945786 0.06893015 -0.016677197 -0.009632069
0.060258992 -0.06677833 -0.07515071 0.07050273 0.07979688 0.00830945 0.04494556 -0.092772156
-0.014838573 0.10357385 -0.06655291 -0.094946675 0.07849725 -0.0728983 0.11209859 0.03898767
-0.07491849 0.14030379 -0.02139729 -0.11359293 0.14958626 -0.24831069 0.036629267 -0.10922201
0.104285054 -0.11243193 0.105265684 -0.12520723 0.043117326 -0.03986168 -0.0042097485 -0.11577776
0.097259425 -0.053702585 0.017450621 0.050542135 -0.11646609 0.0375921 -0.07700788 0.08472586
-0.06273704 0.018971857 -0.024791554 0.066325046 -0.009588303 0.016651038 0.09665919 0.046008795
-0.10076329 -0.115644015 0.024027182 0.105493054 0.025567083 -0.12709612 0.012477272 0.00835735
-0.13410772 0.06892613 0.032468013 -0.025289722 0.05373359 0.07619996 0.0047370396 -0.05873531
-0.045182176 -0.09382446 -0.035614997 -0.041657794 -0.060610443 -0.14740334 -0.023649674 -0.07341775
-0.010856242 -0.031744678 0.012275233 0.0033994424 -0.009550436 -0.0028373448 0.008368701 0.0017189906
0.018407868 -0.0030579604 -0.026353883 0.020516226 -0.040676218 0.021388296 0.010921082 -0.02289102
0.033373978 -0.019033607 -0.021181712 0.04031439 -0.019326955 0.056698263 0.06769394 -0.016931294
0.0066904775 -0.07568048 0.04087722 -0.015505103 -0.017713955 0.052968666 0.03708538 0.004260281
-0.02291745 -0.11674497 -0.05440588 -0.05969182 0.040460583 -0.11338924 -0.07567737 0.20448601
-0.0041430583 0.15616484 -0.12995318 0.17329897 0.27854145 -0.1508019 -0.20303684 -0.05287333
0.12317002 -0.07430231 -0.01930772 0.047920506 -0.06053207 0.057901874 0.012733941 -0.09033544
00000000: 22d4 843c cd6b f1bd e49e 2b3d ec00 04be
00000010: cb9d 5fbd 221b 953a b378 62bc 1958 493d
00000020: cd29 f7bb ccba a4bc 7776 d33d 405c d8bd
00000030: d259 fa3c 9d62 bd3d 0782 ccbd 4855 17bd
00000040: e57c 05bc d8e7 ffbd d7d8 a9bd 539a 1fbe
00000050: ce68 bcbd 7362 67bd 1e74 0dbe f49b 18be
00000060: 9eca 4a3d e892 2a3c 34f6 99ba b014 cd3d
00000070: 0e19 afbd d382 c93d 28e7 e33d 8d81 f63d
00000080: 21b4 c63b 66b0 6ebc a92e 113c 89b1 5bbd
00000090: 1e45 143d 8b57 22bb 8206 93bd c2bb aa3b
000000a0: 1325 6abd 5e40 d33b 474c 833d 52ba 7a3d
000000b0: 8e1e c93c c396 9b3c 2463 0cbe b4d8 e6bd
000000c0: cd7e aabc 80f6 d53b 3294 6d3d 6e34 cdbd
000000d0: e037 afbc 7a32 0f3d 217b 11bc 21d4 4bbd
000000e0: e707 933a 435e 1abd ba71 2e3d 5d69 a9bb
000000f0: ca82 f5bc ab48 4f3c 2a7f e23d 4b51 0dbc
00000100: 0500 68bc 19a1 033d 5e63 dd3b 2bb0 7d3c
00000110: e823 f33c b191 e63c 82ae e4bd ab54 833d
00000120: 0646 b6bd 6e97 86bd ae58 b33d 57fe 623d
00000130: 1f3d 783c 4921 d13c 6cc1 fdbd dfdb 143d
00000140: fab2 07be 6d56 c73c a453 1e3d 9f6b cabc
00000150: 2593 dd3c 13fe 9a3d 0962 3f3e d77a fb3d
00000160: 5a76 5bbc a6fc 2dbe e290 74be d521 fdbd
00000170: 7b57 e2bd 0f8f 413e 595d 063e 2afc 8bbd
00000180: f380 85bd 27d4 1e3e 8dbc dfbd f493 c23d
00000190: 01fc 6c3d fd0b a23c 207f 3b3d 97d8 5bbc
000001a0: aabb db3b e652 453d ccbf 3f3a 6546 7bbd
000001b0: 6807 633d d58d 88bd d061 d8bd 5cf6 103a
000001c0: 8fe6 be3c 36bb 0f3d 9c97 283d ec5d a5bc
000001d0: c52c 9dbb c488 9e3c 2858 153d 5091 963d
000001e0: eff9 05bd 3d74 e9bc f050 36bb 442d 073d
000001f0: 7f00 34bd 402b 8d3d 9e9e 88bc d3cf 1dbc
00000200: 22d2 763d 14c3 88bd 9ee8 99bd bc63 903d
00000210: 8c6c a33d 5c24 083c d618 383d 54ff bdbd
00000220: 7c1d 73bc 871e d43d e44c 88bd 6773 c2bd
00000230: 2bc3 a03d b44b 95bd f293 e53d 89b1 1f3d
00000240: de6e 99bd ccab 0f3e 5f49 afbc 69a3 e8bd
00000250: 242d 193e 2845 7ebe 9208 163d caaf dfbd
00000260: 6793 d53d b642 e6bd 8995 d73d 5336 00be
00000270: cb9b 303d 0046 23bd eef1 89bb e41c edbd
00000280: f32f c73d 3ef7 5bbd 9bf4 8e3c 4505 4f3d
00000290: c685 eebd 2dfa 193d 4fb6 9dbd c084 ad3d
000002a0: 477c 80bd de6a 9b3c a817 cbbc 6dd5 873d
000002b0: 4218 1dbc c267 883c 41f5 c53d b873 3c3d
000002c0: fc5c cebd c5d6 ecbd a7d4 c43c be0c d83d
000002d0: 0f72 d13c 7c25 02be 796d 4c3c 44ed 083c
000002e0: 8953 09be 2529 8d3d 2efd 043d 642c cfbc
000002f0: c117 5c3d ba0e 9c3d 2b39 9b3b 7094 70bd
00000300: f210 39bd 0a27 c0bd 08e1 11bd 5da1 2abd
00000310: a842 78bd e7f0 16be f6bc c1bc 0c5c 96bd
00000320: 61de 31bc b506 02bd 0f1e 493c 2ec9 5e3b
00000330: 6f79 1cbc bff2 39bb e01c 093c c14f e13a
00000340: 19cc 963c 1068 48bb 19e4 d7bc a511 a83c
00000350: 1b9c 26bd 8236 af3c 57ee 323c f385 bbbc
00000360: 27b3 083d 5eec 9bbc 4585 adbc b420 253d
00000370: 9053 9ebc 703c 683d 1fa3 8a3d 7fb3 8abc
00000380: cb3b db3b 5efe 9abd df6e 273d 1e09 7ebc
00000390: db1c 91bc acf5 583d d7e6 173d d499 8b3b
000003a0: 60bd bbbc fd17 efbd b3d8 5ebd 697f 74bd
000003b0: ffb9 253d 9e38 e8bd bdfc 9abd c864 513e
000003c0: 7ec2 87bb ade9 1f3e 7212 05be 4975 313e
000003d0: fc9c 8e3e d06b 1abe e4e8 4fbe b491 58bd
000003e0: 9040 fc3d cf2b 98bd 392b 9ebc 4b48 443d
000003f0: 7af0 77bd 842a 6d3d 05a2 503c ca01 b9bd

fc1.bias f4 [128]
-0.040969852 0.11019805 2.8141918 0.02465065 -0.074193396 2.4529347 0.5095683 -0.10797292
0.12611157 1.8050201 -2.090418 -2.193882 0.9854764 -0.40231308 0.09448829 -0.21730563
2.4710772 -0.009030562 -1.3489983 0.083897226 1.1819177 -0.0012113603 1.6078115 -0.1030306
-0.03580717 0.03191391 0.005612485 -1.9731314 0.05929021 -2.1294663 0.024335288 -2.2151527
0.0730378 0.046763785 1.807275 -1.3121048 0.56438196 2.294668 -1.7268939 0.8095411
0.4199129 2.4901633 1.7617627 0.57205206 2.3910263 0.78277516 2.3946667 -0.1554874
-1.0774664 -1.9597943 -2.6303184 -0.059075825 -0.62509644 1.070719 -0.16631967 -2.0944939
2.3215973 0.59984964 1.5424064 -0.105034545 -0.9106214 -0.05590749 0.10979019 -0.1375687
-0.65735227 -0.60778433 2.3442483 -0.017365914 1.3432711 -2.3048425 -0.04906502 0.1974497
0.11427768 -1.8047383 0.11975758 -0.022036888 1.1328562 -2.2747695 -0.31338695 -0.012413435
0.5162396 -0.037531264 -0.12999497 -1.8411292 -1.7683821 0.1994087 -0.24451691 -0.028740933
2.1578724 0.12321545 -0.0061865225 -0.9251461 -2.163595 1.6200665 1.3238916 -0.04594456
1.1869856 0.106708124 1.7044594 1.4233015 0.21177721 0.12434484 1.8078914 2.0890498
-0.12186627 0.08408463 1.1383823 0.04798331 -2.068735 -0.013456291 -0.14134513 -1.1901044
2.2303865 -2.1317222 -0.12678951 -0.0031061363 2.1047606 0.10383081 2.6371808 -2.1371207
0.16637711 -0.08593004 0.16695283 0.0540665 -0.52226835 0.49651027 -0.4514851 2.6232789
00000000: 01d0 27bd 84af e13d b81b 3440 29f0 c93c
00000010: b5f2 97bd e2fc 1c40 1173 023f e820 ddbd
00000020: 6423 013e e60a e73f 69c9 05c0 9068 0cc0
00000030: 2e48 7c3f fbfb cdbe 1483 c13d 5e85 5ebe
00000040: 2126 1e40 ecf4 13bc faab acbf 4fd2 ab3d
00000050: 1449 973f 82c6 9eba c4cc cd3f b501 d3bd
00000060: 8aaa 12bd 29b8 023d f0e8 b73b 928f fcbf
00000070: 4bda 723d 2d49 08c0 cc5a c73c 10c5 0dc0
00000080: d894 953d 628b 3f3d ca54 e73f 0df3 a7bf
00000090: 567b 103f d7db 1240 dc0a ddbf 163e 4f3f
000000a0: d3fe d63e d65e 1f40 7181 e13f 0172 123f
000000b0: 9306 1940 f463 483f 3842 1940 1738 1fbe
000000c0: 6bea 89bf 8ada fabf 2357 28c0 7ef9 71bd
000000d0: 5206 20bf 520d 893f b44f 2abe 300c 06c0
000000e0: 0d95 1440 bf8f 193f 936d c53f 5a1c d7bd
000000f0: 7c1e 69bf 41ff 64bd aed9 e03d cfde 0cbe
00000100: 3d48 28bf c197 1bbf 2a08 1640 f642 8ebc
00000110: 4ff0 ab3f 8a82 13c0 67f8 48bd 4130 4a3e
00000120: 6b0a ea3d aa01 e7bf 7643 f53d b486 b4bc
00000130: 6f01 913f d395 11c0 4174 a0be b861 4bbc
00000140: 4728 043f 62ba 19bd 671d 05be 1faa ebbf
00000150: 585a e2bf cb31 4c3e a462 7abe 1b72 ebbc
00000160: 951a 0a40 6258 fc3d 50b8 cabb 60d6 6cbf
00000170: 5778 0ac0 575e cf3f 4875 a93f 5d30 3cbd
00000180: 25ef 973f ca89 da3d ba2b da3f be2e b63f
00000190: 20dc 583e 82a8 fe3d fc68 e73f feb2 0540
000001a0: 0695 f9bd 9034 ac3d 83b6 913f 268a 443d
000001b0: 2766 04c0 c677 5cbc c7bc 10be 5755 98bf
000001c0: a7be 0e40 236e 08c0 1cd5 01be 5290 4bbb
000001d0: 66b4 0640 3fa5 d43d 92c7 2840 96c6 08c0
000001e0: c35e 2a3e 17fc afbd aff5 2a3e d674 5d3d
000001f0: 61b3 05bf 9836 fe3e 0e29 e7be cde3 2740

fc2.weight f4 [64, 128]
-0.039947804 -0.0074920254 0.15181412 0.051314708 -0.02054467 0.118933626 0.003752376 -0.033919662
0.02269063 0.09098168 -0.14244856 -0.16918847 -0.0034423107 0.0023537644 -0.0005256277 0.0010020933
0.16443129 -0.019342883 -0.011124288 0.085175864 -0.00015789719 0.02545725 0.030967347 -0.07586028
-0.06556205 -0.066495396 0.07576943 -0.030013707 -0.017392505 -0.058236443 0.109809116 -0.131215
0.00470246 0.0397922 -0.007996955 -0.14322665 0.0389349 0.14078055 -0.116768025 0.017021548
0.018971896 0.1388538 0.07915077 -0.008122666 0.15250805 0.025042227 0.17255084 -0.0022481172
-0.035420533 -0.08999436 -0.07138913 0.032065365 -0.019115305 0.01781901 -0.00510918 -0.19598879
0.21621032 -2.5363857e-05 0.008797325 0.04585145 -0.087674186 0.057129905 -0.0002887571 0.027629493
-0.026940167 -0.01561651 0.1277212 0.046129156 0.02537199 -0.12604739 -0.050990004 -0.0019010094
0.017252747 -0.07451618 0.0995645 0.022211842 0.0016421716 -0.15268509 -0.0036136946 0.021085115
-0.0075362273 0.07970096 0.0039246194 -0.11182659 -0.11091717 -0.009996837 0.0040982747 -0.0022698895
0.04193639 -0.004571866 0.023942826 0.00529894 -0.16055292 0.0057460237 -0.00065653503 0.018422205
0.01800255 -0.018647863 0.008326242 0.063875966 0.06334246 -0.012157122 0.10138411 0.0804982
0.031250212 -0.02171823 0.010001174 0.00907059 -0.036110204 0.0018831731 0.0129150795 -0.023329543
0.12608506 -0.1339172 -0.0030744546 0.022564176 0.10359459 0.009087578 0.17480287 -0.1469868
0.0024348719 -0.06320196 0.018373644 -0.007928212 0.049430415 0.009506935 -0.012079646 0.14174786
0.007997223 -0.2182828 -0.049074173 -0.008976415 0.057195798 -0.049465157 0.018070007 0.08267866
-0.00055334595 0.022058753 0.03013178 -0.09640131 -0.046977613 -0.06723331 0.04377065 0.039806034
0.11000048 -0.00208195 -0.0062275673 -0.010869251 0.0009699077 -0.12602162 0.030200766 0.009117838
0.07026541 -0.01117116 -0.27064443 0.075417474 -0.13711311 -0.033278983 -0.0072323633 -0.07042687
0.16088037 -0.07017607 0.05594299 0.04712668 -0.094305575 -0.0049409927 -0.025132105 0.021081427
0.047644656 0.041813157 0.01655723 0.11335394 -0.067103885 -0.030645682 0.04231177 0.08878411
-0.0023332583 -0.042659853 -0.09325945 -0.059977826 0.039549492 0.0937267 0.008832916 -0.13844241
0.07129772 -0.0668379 -0.0028673753 -0.0001305604 -0.040058825 -0.07359823 0.03432521 0.034158688
0.14408264 -0.15153214 0.02223784 -0.017825482 0.0825803 0.011646115 0.055389483 0.11571205
-0.109534375 0.076917835 -0.060535952 -0.07624703 0.05515962 0.0046255384 0.060961887 0.039064027
0.06652004 -0.017003313 0.059081253 0.005888234 -0.04915746 -0.037439425 0.028268779 0.028128322
-0.033267893 -0.0016184029 -0.14017715 0.0055359066 -0.028117333 -0.032869026 -0.06467594 0.002544071
0.1189604 0.009317594 0.10949682 -0.10681289 0.05418239 -0.024154516 -0.054633994 -0.0100513855
-0.065098934 0.04684537 -0.05928133 -0.042424697 -0.017012933 0.021382455 -0.02663743 -0.20261844
-0.10575396 -0.01954529 -0.08641974 -0.23785155 -0.09595023 -0.07422748 -0.07018799 0.09018011
-0.2520309 0.014836544 -0.018783234 -0.02092533 -0.0847717 -0.049589705 0.024108779 0.0018961508
00000000: 4fa0 23bd aa7f f5bb 2975 1b3e 5f2f 523d
00000010: 4c4d a8bc 7993 f33d 6cea 753b 58ef 0abd
00000020: b3e1 b93c 9a54 ba3d 09de 11be be3f 2dbe
00000030: 6498 61bb 9d41 1a3b 47ca 09ba ac58 833a
00000040: ad60 283e f774 9ebc a542 36bc af70 ae3d
00000050: 3491 25b9 b98b d03c 3caf fd3c a25c 9bbd
00000060: 6545 86bd bd2e 88bd 012d 9b3d 4edf f5bc
00000070: ba7a 8ebc 5689 6ebd 9ae3 e03d 3a5d 06be
00000080: 1817 9a3b 25fd 223d a905 03bc 02aa 12be
00000090: 347a 1f3d c728 103e 1324 efbd c670 8b3c
000000a0: f36a 9b3c b12f 0e3e cd19 a23d ee14 05bc
000000b0: 122b 1c3e 5b25 cd3c 2bb1 303e 2655 13bb
000000c0: 1f15 11bd f74e b8bd 7734 92bd f956 033d
000000d0: b397 9cbc 2cf9 913c e96a a7bb 49b1 48be
000000e0: 3d66 5d3e 78c4 d4b7 a822 103c bbce 3b3d
000000f0: 868e b3bd 0c01 6a3d 5264 97b9 3f57 e23c
00000100: a0b1 dcbc 64dc 7fbc 59c9 023e edf1 3c3d
00000110: ebd8 cf3c 9112 01be e5da 50bd 4a2b f9ba
00000120: a255 8d3c f09b 98bd 79e8 cb3d 9cf5 b53c
00000130: 233e d73a 7b59 1cbe bcd3 6cbb b1ba ac3c
00000140: 75f2 f6bb 423a a33d 189a 803b 5705 e5bd
00000150: 8b28 e3bd c6c9 23bc d24a 863b 6dc2 14bb
00000160: 7ec5 2b3d 97cf 95bb bf23 c43c bba2 ad3b
00000170: fc67 24be 2449 bc3b 521b 2cba 2aea 963c
00000180: 157a 933c 67c3 98bc ca6a 083c 67d1 823d
00000190: b1b9 813d aa2e 47bc 79a2 cf3d 3edc a43d
000001a0: 3900 003d 6eea b1bc f7db 233c d09c 143c
000001b0: 4be8 13bd ced4 f63a c599 533c 991d bfbc
000001c0: 711c 013e 9721 09be ca7c 49bb 82d8 b83c
000001d0: 6729 d43d 11e4 143c 86ff 323e b583 16be
000001e0: 5f92 1f3b 0770 81bd 5384 963c 55e5 01bc
000001f0: 8c77 4a3d fac2 1b3c b5e9 45bc 5a26 113e
00000200: c906 033c 8785 5fbe 0002 49bd d011 13bc
00000210: 2446 6a3d fa9b 4abd 8d07 943c 6e53 a93d
00000220: 6b0e 11ba 8fb4 b43c ecd6 f63c 0d6e c5bd
00000230: 996b 40bd 9eb1 89bd da48 333d a70b 233d
00000240: ef47 e13d 5371 08bb 9f10 ccbb f114 32bc
00000250: 6741 7e3a d00b 01be 9967 f73c fc62 153c
00000260: 50e7 8f3d 3e07 37bc e891 8abe 7a74 9a3d
00000270: 6167 0cbe 8b4f 08bd 76fd ecbb f63b 90bd
00000280: d3bd 243e 79b8 8fbd 7a24 653d e807 413d
00000290: 4823 c1bd 0de8 a1bb d8e1 cdbc f5b2 ac3c
000002a0: 0b27 433d 4644 2b3d 07a3 873c 1c26 e83d
000002b0: c36d 89bd a70c fbbc 1b4f 2d3d 72d4 b53d
000002c0: 94e9 18bb 19bc 2ebd cffe bebd 4fab 75bd
000002d0: a6fe 213d c9f3 bf3d efb7 103c d9c3 0dbe
000002e0: 8a04 923d 4fe2 88bd 93ea 3bbb 0ae7 08b9
000002f0: b914 24bd abba 96bd 9798 0c3d fbe9 0b3d
00000300: 668a 133e 3e2b 1bbe 212c b63c bf06 92bc
00000310: dc1f a93d 59cf 3e3c 15e0 623d 70fa ec3d
00000320: 8f53 e0bd 1987 9d3d 8cf4 77bd 6727 9cbd
00000330: 0eef 613d d491 973b 2cb3 793d 9a01 203d
00000340: a93b 883d 884a 8bbc 2fff 713d 16f2 c03b
00000350: 5559 49bd 155a 19bd ed93 e73c 5e6d e63c
00000360: ea43 08bd 9720 d4ba 998a 0fbe 8d66 b53b
00000370: 5256 e6bc aca1 06bd d274 84bd 6eba 263b
00000380: 83a1 f33d d2a8 183c de3f e03d b7c0 dabd
00000390: 5bee 5d3d b1df c5bc e5c7 5fbd 91ae 24bc
000003a0: 9752 85bd eee0 3f3d fbd0 72bd 85c5 2dbd
000003b0: b55e 8bbc 422a af3c bd36 dabc 357b 4fbe
000003c0: 8895 d8bd 721d a0bc d5fc b0bd 5b8f 73be
000003d0: 8e81 c4bd 9404 98bd b9be 8fbd 59b0 b83d
000003e0: 320a 81be fa14 733c 4cdf 99bc 996b abbc
000003f0: c99c adbd 931e 4bbd c67f c53c 4388 f83a

fc2.bias f4 [64]
0.921349 0.13237928 0.007297495 0.032654587 -0.033202313 0.8447697 -0.07429168 2.3545732
0.12168734 -0.04615266 0.089558676 -0.013227286 -0.063261725 0.043575518 2.211066 1.4520336
0.049825277 0.00082907855 0.0006573855 -0.06942038 0.102368 0.030925507 -0.055535056 -0.23331086
0.0043684277 0.034216832 -0.03885764 -0.041058782 -1.5472038 -0.07742831 -0.8575277 -2.1515367
1.2675964 0.887267 -2.3102398 0.041861285 -0.06666527 -1.239505 -1.3704718 1.4334922
0.072792046 0.083621316 -0.92595553 -0.02336033 -0.14160758 0.040016897 -0.0030182775 -0.023375148
0.20271339 0.055096623 -0.016667252 -0.053657506 -0.7357382 -1.7934897 -1.717298 0.004292076
-1.0595243 0.3444517 1.7253565 0.04674448 -0.28776956 -0.14158437 -0.051064223 1.7166028
00000000: 87dd 6b3f 6f8e 073e d31f ef3b d1c0 053d
00000010: 26ff 07bd d442 583f 3c26 98bd 54b1 1640
00000020: 3637 f93d 920a 3dbd 8a6a b73d 42b7 58bc
00000030: 5d8f 81bd 3e7c 323d 1b82 0d40 3ddc b93f
00000040: 9715 4c3d 8556 593a 6554 2c3a 462c 8ebd
00000050: 50a6 d13d 7d57 fd3c ba78 63bd 0be9 6ebe
00000060: 0725 8f3b f326 0c3d 3029 1fbd 412d 28bd
00000070: c60a c6bf bc92 9ebd ef86 5bbf c7b2 09c0
00000080: 9940 a23f ee23 633f f8da 13c0 bd76 2b3d
00000090: cd87 88bd 1aa8 9ebf 9f6b afbf ac7c b73f
000000a0: ff13 953d a741 ab3d 6c0b 6dbf 2a5e bfbc
000000b0: 9401 11be c2e8 233d 4bce 45bb 3d7d bfbc
000000c0: 1994 4f3e ffac 613d c389 88bc f9c7 5bbd
000000d0: 5759 3cbf 1291 e5bf 6cd0 dbbf 8ba4 8c3b
000000e0: 7e9e 87bf f95b b03e 7bd8 dc3f 2477 3f3d
000000f0: 8856 93be 7efb 10be b828 51bd a4b9 db3f

fc3.weight f4 [87, 64]
-0.05914287 0.034695376 -0.18995239 0.032834448 -0.43334144 -0.07387438 0.10837268 -0.6717954
-0.34114602 -0.53690624 -0.37754592 -0.42142895 0.025294578 -0.44851393 -0.08661726 -0.104953334
-0.3092574 -0.45621035 -0.13853873 -0.12841667 -0.13108191 -0.38438788 -0.105303295 -4.6713066
-0.51817036 0.09103647 -0.13889538 0.07876118 -0.79286695 -0.22752534 -0.34616345 -0.9508801
0.03032064 -0.64632434 -2.0920947 -0.052656632 -0.009188822 0.17629424 -0.15411563 -0.05310491
0.20478699 0.012572816 -0.2700049 0.1119931 -0.14096001 -0.567914 -0.6942785 -0.90045273
-0.638171 -0.58405685 -0.09294682 -0.29953477 -1.3264893 -0.05655315 -1.6697196 -0.56916904
-0.59719497 -0.112115666 0.16076599 -0.56877947 -0.0115989335 0.18278004 0.045849305 0.034848552
-0.12739486 -0.6345392 -0.25538456 -0.06651789 -0.65694773 0.005491101 -0.49246737 0.2276759
-0.5866585 -0.69730127 -0.5837493 -0.7325372 -0.0149574885 -0.61458784 -0.2424602 -0.46425357
-0.6809885 -0.555763 -0.13024506 -0.08528792 -0.5342912 0.17207289 -0.19637161 -4.1362023
-0.39347667 -0.22190665 -0.0538672 -0.3514432 -1.3081555 0.17619433 -0.67415726 -3.018936
-0.083833 -0.99588126 -3.1888082 -0.31308222 0.027810104 -0.21793093 -1.947828 -1.3896126
0.18692842 -0.027765796 0.20546259 -0.4657252 -0.1290407 -0.54848415 0.07261718 -0.2680122
-0.8981567 -0.5298751 0.12388737 -0.33786413 -1.6922315 -0.47713715 -0.105606645 -0.5648997
-0.3065673 -0.28157392 0.09669387 0.12773807 -1.7525134 0.035153445 -0.13946527 -0.3129746
-0.058386043 -1.3325026 -0.30478656 0.06278284 -1.497696 0.010124252 -0.043539003 -0.04787497
-1.7357699 0.1940906 -1.292729 -1.4777378 -0.2062192 -0.65238905 -1.0173616 0.12761194
-0.82105166 -1.0070559 0.06469111 -0.14303549 -0.09146319 -0.59464735 -0.026128743 -3.7253335
-1.8114173 -0.07353775 -0.20538327 -2.5791 -3.330152 -0.67103314 -2.7049596 -3.5972261
0.08341554 -1.9987438 -3.8795803 -0.75303686 -0.46142116 0.1333451 -0.37868243 -0.023333058
-0.28253648 -2.527497 0.09681198 -0.9765344 -1.172435 -0.68694055 -2.4121387 -1.5686536
-1.2768039 -1.6376144 -0.02557708 -0.7623778 -1.4855871 -0.2547483 -0.25632164 -1.2901683
-1.197515 0.085383154 0.15022555 -1.2075486 -0.08985633 -0.16872309 -0.10275067 0.16803631
-0.4417036 -0.42482582 -1.0356219 -0.07988804 -1.1179489 -0.8462198 0.22488235 -0.28091305
-1.4135218 -1.1099299 -1.1423519 -0.5993722 -0.13447702 -0.5797924 -0.39688957 -0.2915215
-1.2987206 -1.3287702 -0.12480503 -0.12963179 -0.5013466 -0.6118457 -0.3394913 -2.5611606
-1.2960352 -1.2774998 -0.08782627 -0.5289975 -2.6732678 -0.66231 -3.4319339 -0.16775845
0.07904528 -2.1976697 -0.4467755 -0.38573483 -0.21873152 0.10328504 -0.96411085 -0.14478515
-0.34902167 -2.2368374 0.32755992 -0.78653914 -1.0638129 -1.6508144 -1.3525705 -0.4419394
-0.4631399 -1.456671 -0.13670294 -0.0675775 -3.8835495 -0.16078953 -0.7718688 -1.1174431
-0.6833842 0.086572066 0.039881416 -1.7570635 0.0072868573 -0.31611317 -0.0020967715 -0.03198395
00000000: cb3f 72bd bd1c 0e3d e182 42be 6a7d 063d
00000010: eede ddbe 734b 97bd 7ff2 dd3d c9fa 2bbf
00000020: b1aa aebe b072 09bf b34d c1be 89c5 d7be
00000030: 9336 cf3c 9ea3 e5be 6464 b1bd c6f1 d6bd
00000040: fc56 9ebe 6794 e9be 19dd 0dbe a97f 03be
00000050: 563a 06be 7dce c4be 41a9 d7bd 587b 95c0
00000060: d0a6 04bf 5471 ba3d 973a 0ebe 8b4d a13d
00000070: 54f9 4abf 67fc 68be 563c b1be e16c 73bf
00000080: fe62 f83c 8375 25bf e1e4 05c0 7bae 57bd
00000090: b68c 16bc 7a86 343e 7dd0 1dbe 8984 59bd
000000a0: aeb3 513e 36fe 4d3c 153e 8abe a35c e53d
000000b0: d257 10be d062 11bf 3cbc 31bf 1284 66bf
000000c0: 2d5f 23bf c084 15bf e75a bebd 9f5c 99be
000000d0: 67ca a9bf 47a4 67bd 5fb9 d5bf 10b5 11bf
000000e0: c5e1 18bf e69c e5bd d79f 243e 889b 11bf
000000f0: 7409 3ebc b12a 3b3e 7bcc 3b3d 5bbd 0e3d
00000100: cc73 02be 2971 22bf c4c1 82be 883a 88bd
00000110: ba2d 28bf b2ee b33b af24 fcbe df23 693e
00000120: 402f 16bf 5682 32bf 9870 15bf 8f87 3bbf
00000130: 4110 75bc a155 1dbf 7d47 78be a5b2 edbe
00000140: 4355 2ebf 7c46 0ebf f65e 05be 6fab aebd
00000150: 4fc7 08bf e033 303e a415 49be c55b 84c0
00000160: c675 c9be 7f3b 63be daa3 5cbd 5df0 b3be
00000170: a471 a7bf 496c 343e 9295 2cbf 3f36 41c0
00000180: a3b0 abbd 13f2 7ebf 6f15 4cc0 504c a0be
00000190: 04d2 e33c 4929 5fbe 6e52 f9bf d3de b1bf
000001a0: 2a6a 3f3e 1875 e3bc c964 523e 8973 eebe
000001b0: 3f23 04be 7569 0cbf 51b8 943d e538 89be
000001c0: 99ed 65bf e5a5 07bf a9b8 fd3d 87fc acbe
000001d0: 0b9b d8bf 524b f4be 4c48 d8bd 449d 10bf
000001e0: 64f6 9cbe 752a 90be 7007 c63d c5cd 023e
000001f0: 5c52 e0bf 0ffd 0f3d fccf 0ebe 353e a0be
00000200: 3426 6fbd 728f aabf fc0c 9cbe 4a94 803d
00000210: 81b4 bfbf 31e0 253c f455 32bd 8b18 44bd
00000220: b52d debf b0bf 463e 2578 a5bf 8326 bdbf
00000230: 202b 53be f802 27bf e838 82bf b4ac 023e
00000240: 7130 52bf 35e7 80bf c67c 843d e577 12be
00000250: 0e51 bbbd cf3a 18bf f20b d6bc dd6b 6ec0
00000260: 86dc e7bf f69a 96bd fe4f 52be f90f 25c0
00000270: 3621 55c0 d4c8 2bbf 0f1e 2dc0 f438 66c0
00000280: c4d5 aa3d d6d6 ffbf 0b4b 78c0 06c7 40bf
00000290: 653f ecbe 9e8b 083e aae2 c1be f824 bfbc
000002a0: 9fa8 90be 83c2 21c0 5c45 c63d 29fe 79bf
000002b0: 5a12 96bf 56db 2fbf 7b60 1ac0 a4c9 c8bf
000002c0: 4f6e a3bf 599d d1bf 0687 d1bc 312b 43bf
000002d0: b827 bebf 5f6e 82be 973c 83be 3c24 a5bf
000002e0: 2c48 99bf 5ddd ae3d bad4 193e f490 9abf
000002f0: 9806 b8bd bfc5 2cbe f16e d2bd b611 2c3e
00000300: f926 e2be c582 d9be 428f 84bf 579c a3bd
00000310: f318 8fbf dca1 58bf 8f47 663e d6d3 8fbe
00000320: 48ee b4bf 2f12 8ebf 9638 92bf 7570 19bf
00000330: 58b4 09be 466d 14bf 1c35 cbbe 4e42 95be
00000340: 7a3c a6bf 2415 aabf c899 ffbd 32be 04be
00000350: 4058 00bf eba1 1cbf ced1 adbe 0eea 23c0
00000360: 7be4 a5bf 1d85 a3bf 42de b3bd 616c 07bf
00000370: d216 2bc0 268d 29bf cea4 5bc0 dfc8 2bbe
00000380: 7ee2 a13d 9fa6 0cc0 c2bf e4be 097f c5be
00000390: 28fb 5fbe 1b87 d33d f8cf 76bf 8f42 14be
000003a0: f8b2 b2be 5828 0fc0 efb5 a73e a15a 49bf
000003b0: 052b 88bf e34d d3bf 0821 adbf e245 e2be
000003c0: ac20 edbe 3274 babf dbfb 0bbe 1366 8abd
000003d0: 138c 78c0 03a6 24be 3299 45bf 6008 8fbf
000003e0: 44f2 2ebf b24c b13d b25a 233d 75e7 e0bf
000003f0: 97c6 ee3b 96d9 a1be fd69 09bb 9a01 03bd

fc3.bias f4 [87]
0.056797545 0.0077667516 0.06859853 0.1736775 -0.038794912 0.017166546 -0.006566394 0.016316256
-0.051048156 -0.042572137 -0.13171014 0.038266707 -0.06456578 0.21187975 -0.062882006 0.022679819
0.015161764 0.2806632 0.09940655 0.1050009 0.2878038 0.07844599 0.35143545 0.122839846
0.32706207 0.34845188 0.16335106 0.44442037 0.3965207 0.37730226 0.099718265 0.41369912
0.3850951 0.2687909 0.5280514 0.33727264 0.4605574 0.30216414 0.45615026 0.4968574
0.24718039 0.5647037 0.1969056 0.44420785 0.42978787 0.23500048 0.45257097 0.22919965
0.5376792 0.3647812 0.36342883 0.53480744 0.1866957 0.39879146 0.09433152 0.15217677
0.22130439 -0.13449837 0.054521263 -0.39841437 -0.3689369 -0.28096533 -0.8721494 -0.6086675
-1.0657619 -1.0828339 -0.87691385 -1.213357 -0.9391023 -1.2725418 -1.381176 -1.1321597
-1.3348951 -0.7606228 -1.1269853 -0.9000154 -0.93196285 -1.1373094 -0.4966077 -1.0032109
-0.45920298 -0.6897308 -0.5936364 -0.32780084 -0.3978763 -0.008115437 -0.13490742
00000000: 8ba4 683d 3c80 fe3b 637d 8c3d 84d8 313e
00000010: 6ae7 1ebd dba0 8c3c e82a d7bb aba9 853c
00000020: df17 51bd 1f60 2ebd 06df 06be 8dbd 1c3d
00000030: 103b 84bd 01f7 583e 48c8 80bd 07cb b93c
00000040: 0c69 783c 16b3 8f3e a995 cb3d b60a d73d
00000050: 055b 933e 4ba8 a03d 59ef b33e 7593 fb3d
00000060: ae74 a73e 4968 b23e 8045 273e 118b e33e
00000070: c304 cb3e c32d c13e 1739 cc3d 5fd0 d33e
00000080: 2f2b c53e f69e 893e 602e 073f 00af ac3e
00000090: 2ece eb3e 42b5 9a3e 878c e93e 1864 fe3e
000000a0: db1c 7d3e 6c90 103f 9fa1 493e 366f e33e
000000b0: 280d dc3e f7a3 703e 62b7 e73e 50b3 6a3e
000000c0: 58a5 093f 9ac4 ba3e 5813 ba3e 24e9 083f
000000d0: 282d 3f3e 652e cc3e e230 c13d 3ad4 1b3e
000000e0: 9e9d 623e f1b9 09be b051 5f3d f8fc cbbe
000000f0: 4ce5 bcbe b0da 8fbe 2f45 5fbf a2d1 1bbf
00000100: e36a 88bf 4d9a 8abf 6d7d 60bf 484f 9bbf
00000110: 0269 70bf a6e2 a2bf 60ca b0bf 9cea 90bf
00000120: d8dd aabf 2db8 42bf 0e41 90bf 6967 66bf
00000130: 1e95 6ebf 5b93 91bf 5d43 febe 3769 80bf
00000140: a71c ebbe 3392 30bf 8ef8 17bf 83d5 a7be
00000150: 71b6 cbbe 9cf6 04bc 2c25 0abe
